…
    "collapsed": false
   },
   "outputs": [
    {
     "name": "stderr",
     "output_type": "stream",
     "text": [
      "/opt/conda/envs/py3/lib/python3.6/site-packages/ipykernel/__main__.py:20: UserWarning: nn.init.xavier_uniform is now deprecated in favor of nn.init.xavier_uniform_.\n"
     ]
    },
    {
     "data": {
      "text/plain": [
       "EncoderDecoder(\n",
       "  (encoder): Encoder(\n",
       "    (layers): ModuleList(\n",
       "      (0): EncoderLayer(\n",
       "        (self_attn): MultiHeadedAttention(\n",
       "          (linears): ModuleList(\n",
       "            (0): Linear(in_features=512, out_features=512, bias=True)\n",
       "            (1): Linear(in_features=512, out_features=512, bias=True)\n",
       "            (2): Linear(in_features=512, out_features=512, bias=True)\n",
       "            (3): Linear(in_features=512, out_features=512, bias=True)\n",
       "          )\n",
       "          (dropout): Dropout(p=0.1)\n",
       "        )\n",
       "        (feed_forward): PositionwiseFeedForward(\n",
       "          (w_1): Linear(in_features=512, out_features=2048, bias=True)\n",
       "          (w_2): Linear(in_features=2048, out_features=512, bias=True)\n",
       "          (dropout): Dropout(p=0.1)\n",
       "        )\n",
       "        (sublayer): ModuleList(\n",
       "          (0): SublayerConnection(\n",
       "            (norm): LayerNorm()\n",
       "            (dropout): Dropout(p=0.1)\n",
       "          )\n",
       "          (1): SublayerConnection(\n",
       "            (norm): LayerNorm()\n",
       "            (dropout): Dropout(p=0.1)\n",
       "          )\n",
       "        )\n",
       "      )\n",
       "      (1): EncoderLayer(\n",
       "        (self_attn): MultiHeadedAttention(\n",
       "          (linears): ModuleList(\n",
       "            (0): Linear(in_features=512, out_features=512, bias=True)\n",
       "            (1): Linear(in_features=512, out_features=512, bias=True)\n",
       "            (2): Linear(in_features=512, out_features=512, bias=True)\n",
       "            (3): Linear(in_features=512, out_features=512, bias=True)\n",
       "          )\n",
       "          (dropout): Dropout(p=0.1)\n",
       "        )\n",
       "        (feed_forward): PositionwiseFeedForward(\n",
       "          (w_1): Linear(in_features=512, out_features=2048, bias=True)\n",
       "          (w_2): Linear(in_features=2048, out_features=512, bias=True)\n",
       "          (dropout): Dropout(p=0.1)\n",
       "        )\n",
       "        (sublayer): ModuleList(\n",
       "          (0): SublayerConnection(\n",
       "            (norm): LayerNorm()\n",
       "            (dropout): Dropout(p=0.1)\n",
       "          )\n",
       "          (1): SublayerConnection(\n",
       "            (norm): LayerNorm()\n",
       "            (dropout): Dropout(p=0.1)\n",
       "          )\n",
       "        )\n",
       "      )\n",
       "      (2): EncoderLayer(\n",
       "        (self_attn): MultiHeadedAttention(\n",
       "          (linears): ModuleList(\n",
       "            (0): Linear(in_features=512, out_features=512, bias=True)\n",
       "            (1): Linear(in_features=512, out_features=512, bias=True)\n",
       "            (2): Linear(in_features=512, out_features=512, bias=True)\n",
       "            (3): Linear(in_features=512, out_features=512, bias=True)\n",
       "          )\n",
       "          (dropout): Dropout(p=0.1)\n",
       "        )\n",
       "        (feed_forward): PositionwiseFeedForward(\n",
       "          (w_1): Linear(in_features=512, out_features=2048, bias=True)\n",
       "          (w_2): Linear(in_features=2048, out_features=512, bias=True)\n",
       "          (dropout): Dropout(p=0.1)\n",
       "        )\n",
       "        (sublayer): ModuleList(\n",
       "          (0): SublayerConnection(\n",
       "            (norm): LayerNorm()\n",
       "            (dropout): Dropout(p=0.1)\n",
       "          )\n",
       "          (1): SublayerConnection(\n",
       "            (norm): LayerNorm()\n",
       "            (dropout): Dropout(p=0.1)\n",
       "          )\n",
       "        )\n",
       "      )\n",
       "      (3): EncoderLayer(\n",
       "        (self_attn): MultiHeadedAttention(\n",
       "          (linears): ModuleList(\n",
       "            (0): Linear(in_features=512, out_features=512, bias=True)\n",
       "            (1): Linear(in_features=512, out_features=512, bias=True)\n",
       "            (2): Linear(in_features=512, out_features=512, bias=True)\n",
       "            (3): Linear(in_features=512, out_features=512, bias=True)\n",
       "          )\n",
       "          (dropout): Dropout(p=0.1)\n",
       "        )\n",
       "        (feed_forward): PositionwiseFeedForward(\n",
       "          (w_1): Linear(in_features=512, out_features=2048, bias=True)\n",
       "          (w_2): Linear(in_features=2048, out_features=512, bias=True)\n",
       "          (dropout): Dropout(p=0.1)\n",
       "        )\n",
       "        (sublayer): ModuleList(\n",
       "          (0): SublayerConnection(\n",
       "            (norm): LayerNorm()\n",
       "            (dropout): Dropout(p=0.1)\n",
       "          )\n",
       "          (1): SublayerConnection(\n",
       "            (norm): LayerNorm()\n",
       "            (dropout): Dropout(p=0.1)\n",
       "          )\n",
       "        )\n",
       "      )\n",
       "      (4): EncoderLayer(\n",
       "        (self_attn): MultiHeadedAttention(\n",
       "          (linears): ModuleList(\n",
       "            (0): Linear(in_features=512, out_features=512, bias=True)\n",
       "            (1): Linear(in_features=512, out_features=512, bias=True)\n",
       "            (2): Linear(in_features=512, out_features=512, bias=True)\n",
       "            (3): Linear(in_features=512, out_features=512, bias=True)\n",
       "          )\n",
       "          (dropout): Dropout(p=0.1)\n",
       "        )\n",
       "        (feed_forward): PositionwiseFeedForward(\n",
       "          (w_1): Linear(in_features=512, out_features=2048, bias=True)\n",
       "          (w_2): Linear(in_features=2048, out_features=512, bias=True)\n",
       "          (dropout): Dropout(p=0.1)\n",
       "        )\n",
       "        (sublayer): ModuleList(\n",
       "          (0): SublayerConnection(\n",
       "            (norm): LayerNorm()\n",
       "            (dropout): Dropout(p=0.1)\n",
       "          )\n",
       "          (1): SublayerConnection(\n",
       "            (norm): LayerNorm()\n",
       "            (dropout): Dropout(p=0.1)\n",
       "          )\n",
       "        )\n",
       "      )\n",
       "      (5): EncoderLayer(\n",
       "        (self_attn): MultiHeadedAttention(\n",
       "          (linears): ModuleList(\n",
       "            (0): Linear(in_features=512, out_features=512, bias=True)\n",
       "            (1): Linear(in_features=512, out_features=512, bias=True)\n",
       "            (2): Linear(in_features=512, out_features=512, bias=True)\n",
       "            (3): Linear(in_features=512, out_features=512, bias=True)\n",
       "          )\n",
       "          (dropout): Dropout(p=0.1)\n",
       "        )\n",
       "        (feed_forward): PositionwiseFeedForward(\n",
       "          (w_1): Linear(in_features=512, out_features=2048, bias=True)\n",
       "          (w_2): Linear(in_features=2048, out_features=512, bias=True)\n",
       "          (dropout): Dropout(p=0.1)\n",
       "        )\n",
       "        (sublayer): ModuleList(\n",
       "          (0): SublayerConnection(\n",
       "            (norm): LayerNorm()\n",
       "            (dropout): Dropout(p=0.1)\n",
       "          )\n",
       "          (1): SublayerConnection(\n",
       "            (norm): LayerNorm()\n",
       "            (dropout): Dropout(p=0.1)\n",
       "          )\n",
       "        )\n",
       "      )\n",
       "    )\n",
       "    (norm): LayerNorm()\n",
       "  )\n",
       "  (decoder): Decoder(\n",
       "    (layers): ModuleList(\n",
       "      (0): DecoderLayer(\n",
       "        (self_attn): MultiHeadedAttention(\n",
       "          (linears): ModuleList(\n",
       "            (0): Linear(in_features=512, out_features=512, bias=True)\n",
       "            (1): Linear(in_features=512, out_features=512, bias=True)\n",
       "            (2): Linear(in_features=512, out_features=512, bias=True)\n",
       "            (3): Linear(in_features=512, out_features=512, bias=True)\n",
       "          )\n",
       "          (dropout): Dropout(p=0.1)\n",
       "        )\n",
       "        (src_attn): MultiHeadedAttention(\n",
       "          (linears): ModuleList(\n",
       "            (0): Linear(in_features=512, out_features=512, bias=True)\n",
       "            (1): Linear(in_features=512, out_features=512, bias=True)\n",
       "            (2): Linear(in_features=512, out_features=512, bias=True)\n",
       "            (3): Linear(in_features=512, out_features=512, bias=True)\n",
       "          )\n",
       "          (dropout): Dropout(p=0.1)\n",
       "        )\n",
       "        (feed_forward): PositionwiseFeedForward(\n",
       "          (w_1): Linear(in_features=512, out_features=2048, bias=True)\n",
       "          (w_2): Linear(in_features=2048, out_features=512, bias=True)\n",
       "          (dropout): Dropout(p=0.1)\n",
       "        )\n",
       "        (sublayer): ModuleList(\n",
       "          (0): SublayerConnection(\n",
       "            (norm): LayerNorm()\n",
       "            (dropout): Dropout(p=0.1)\n",
       "          )\n",
       "          (1): SublayerConnection(\n",
       "            (norm): LayerNorm()\n",
       "            (dropout): Dropout(p=0.1)\n",
       "          )\n",
       "          (2): SublayerConnection(\n",
       "            (norm): LayerNorm()\n",
       "            (dropout): Dropout(p=0.1)\n",
       "          )\n",
       "        )\n",
       "      )\n",
       "      (1): DecoderLayer(\n",
       "        (self_attn): MultiHeadedAttention(\n",
       "          (linears): ModuleList(\n",
       "            (0): Linear(in_features=512, out_features=512, bias=True)\n",
       "            (1): Linear(in_features=512, out_features=512, bias=True)\n",
       "            (2): Linear(in_features=512, out_features=512, bias=True)\n",
       "            (3): Linear(in_features=512, out_features=512, bias=True)\n",
       "          )\n",
       "          (dropout): Dropout(p=0.1)\n",
       "        )\n",
       "        (src_attn): MultiHeadedAttention(\n",
       "          (linears): ModuleList(\n",
       "            (0): Linear(in_features=512, out_features=512, bias=True)\n",
       "            (1): Linear(in_features=512, out_features=512, bias=True)\n",
       "            (2): Linear(in_features=512, out_features=512, bias=True)\n",
       "            (3): Linear(in_features=512, out_features=512, bias=True)\n",
       "          )\n",
       "          (dropout): Dropout(p=0.1)\n",
       "        )\n",
       "        (feed_forward): PositionwiseFeedForward(\n",
       "          (w_1): Linear(in_features=512, out_features=2048, bias=True)\n",
       "          (w_2): Linear(in_features=2048, out_features=512, bias=True)\n",
       "          (dropout): Dropout(p=0.1)\n",
       "        )\n",
       "        (sublayer): ModuleList(\n",
       "          (0): SublayerConnection(\n",
       "            (norm): LayerNorm()\n",
       "            (dropout): Dropout(p=0.1)\n",
       "          )\n",
       "          (1): SublayerConnection(\n",
       "            (norm): LayerNorm()\n",
       "            (dropout): Dropout(p=0.1)\n",
       "          )\n",
       "          (2): SublayerConnection(\n",
       "            (norm): LayerNorm()\n",
       "            (dropout): Dropout(p=0.1)\n",
       "          )\n",
       "        )\n",
       "      )\n",
       "      (2): DecoderLayer(\n",
       "        (self_attn): MultiHeadedAttention(\n",
       "          (linears): ModuleList(\n",
       "            (0): Linear(in_features=512, out_features=512, bias=True)\n",
       "            (1): Linear(in_features=512, out_features=512, bias=True)\n",
       "            (2): Linear(in_features=512, out_features=512, bias=True)\n",
       "            (3): Linear(in_features=512, out_features=512, bias=True)\n",
       "          )\n",
       "          (dropout): Dropout(p=0.1)\n",
       "        )\n",
       "        (src_attn): MultiHeadedAttention(\n",
       "          (linears): ModuleList(\n",
       "            (0): Linear(in_features=512, out_features=512, bias=True)\n",
       "            (1): Linear(in_features=512, out_features=512, bias=True)\n",
       "            (2): Linear(in_features=512, out_features=512, bias=True)\n",
       "            (3): Linear(in_features=512, out_features=512, bias=True)\n",
       "          )\n",
       "          (dropout): Dropout(p=0.1)\n",
       "        )\n",
       "        (feed_forward): PositionwiseFeedForward(\n",
       "          (w_1): Linear(in_features=512, out_features=2048, bias=True)\n",
       "          (w_2): Linear(in_features=2048, out_features=512, bias=True)\n",
       "          (dropout): Dropout(p=0.1)\n",
       "        )\n",
       "        (sublayer): ModuleList(\n",
       "          (0): SublayerConnection(\n",
       "            (norm): LayerNorm()\n",
       "            (dropout): Dropout(p=0.1)\n",
       "          )\n",
       "          (1): SublayerConnection(\n",
       "            (norm): LayerNorm()\n",
       "            (dropout): Dropout(p=0.1)\n",
       "          )\n",
       "          (2): SublayerConnection(\n",
       "            (norm): LayerNorm()\n",
       "            (dropout): Dropout(p=0.1)\n",
       "          )\n",
       "        )\n",
       "      )\n",
       "      (3): DecoderLayer(\n",
       "        (self_attn): MultiHeadedAttention(\n",
       "          (linears): ModuleList(\n",
       "            (0): Linear(in_features=512, out_features=512, bias=True)\n",
       "            (1): Linear(in_features=512, out_features=512, bias=True)\n",
       "            (2): Linear(in_features=512, out_features=512, bias=True)\n",
       "            (3): Linear(in_features=512, out_features=512, bias=True)\n",
       "          )\n",
       "          (dropout): Dropout(p=0.1)\n",
       "        )\n",
       "        (src_attn): MultiHeadedAttention(\n",
       "          (linears): ModuleList(\n",
       "            (0): Linear(in_features=512, out_features=512, bias=True)\n",
       "            (1): Linear(in_features=512, out_features=512, bias=True)\n",
       "            (2): Linear(in_features=512, out_features=512, bias=True)\n",
       "            (3): Linear(in_features=512, out_features=512, bias=True)\n",
       "          )\n",
       "          (dropout): Dropout(p=0.1)\n",
       "        )\n",
       "        (feed_forward): PositionwiseFeedForward(\n",
       "          (w_1): Linear(in_features=512, out_features=2048, bias=True)\n",
       "          (w_2): Linear(in_features=2048, out_features=512, bias=True)\n",
       "          (dropout): Dropout(p=0.1)\n",
       "        )\n",
       "        (sublayer): ModuleList(\n",
       "          (0): SublayerConnection(\n",
       "            (norm): LayerNorm()\n",
       "            (dropout): Dropout(p=0.1)\n",
       "          )\n",
       "          (1): SublayerConnection(\n",
       "            (norm): LayerNorm()\n",
       "            (dropout): Dropout(p=0.1)\n",
       "          )\n",
       "          (2): SublayerConnection(\n",
       "            (norm): LayerNorm()\n",
       "            (dropout): Dropout(p=0.1)\n",
       "          )\n",
       "        )\n",
       "      )\n",
       "      (4): DecoderLayer(\n",
       "        (self_attn): MultiHeadedAttention(\n",
       "          (linears): ModuleList(\n",
       "            (0): Linear(in_features=512, out_features=512, bias=True)\n",
       "            (1): Linear(in_features=512, out_features=512, bias=True)\n",
       "            (2): Linear(in_features=512, out_features=512, bias=True)\n",
       "            (3): Linear(in_features=512, out_features=512, bias=True)\n",
       "          )\n",
       "          (dropout): Dropout(p=0.1)\n",
       "        )\n",
       "        (src_attn): MultiHeadedAttention(\n",
       "          (linears): ModuleList(\n",
       "            (0): Linear(in_features=512, out_features=512, bias=True)\n",
       "            (1): Linear(in_features=512, out_features=512, bias=True)\n",
       "            (2): Linear(in_features=512, out_features=512, bias=True)\n",
       "            (3): Linear(in_features=512, out_features=512, bias=True)\n",
       "          )\n",
       "          (dropout): Dropout(p=0.1)\n",
       "        )\n",
       "        (feed_forward): PositionwiseFeedForward(\n",
       "          (w_1): Linear(in_features=512, out_features=2048, bias=True)\n",
       "          (w_2): Linear(in_features=2048, out_features=512, bias=True)\n",
       "          (dropout): Dropout(p=0.1)\n",
       "        )\n",
       "        (sublayer): ModuleList(\n",
       "          (0): SublayerConnection(\n",
       "            (norm): LayerNorm()\n",
       "            (dropout): Dropout(p=0.1)\n",
       "          )\n",
       "          (1): SublayerConnection(\n",
       "            (norm): LayerNorm()\n",
       "            (dropout): Dropout(p=0.1)\n",
       "          )\n",
       "          (2): SublayerConnection(\n",
       "            (norm): LayerNorm()\n",
       "            (dropout): Dropout(p=0.1)\n",
       "          )\n",
       "        )\n",
       "      )\n",
       "      (5): DecoderLayer(\n",
       "        (self_attn): MultiHeadedAttention(\n",
       "          (linears): ModuleList(\n",
       "            (0): Linear(in_features=512, out_features=512, bias=True)\n",
       "            (1): Linear(in_features=512, out_features=512, bias=True)\n",
       "            (2): Linear(in_features=512, out_features=512, bias=True)\n",
       "            (3): Linear(in_features=512, out_features=512, bias=True)\n",
       "          )\n",
       "          (dropout): Dropout(p=0.1)\n",
       "        )\n",
       "        (src_attn): MultiHeadedAttention(\n",
       "          (linears): ModuleList(\n",
       "            (0): Linear(in_features=512, out_features=512, bias=True)\n",
       "            (1): Linear(in_features=512, out_features=512, bias=True)\n",
       "            (2): Linear(in_features=512, out_features=512, bias=True)\n",
       "            (3): Linear(in_features=512, out_features=512, bias=True)\n",
       "          )\n",
       "          (dropout): Dropout(p=0.1)\n",
       "        )\n",
       "        (feed_forward): PositionwiseFeedForward(\n",
       "          (w_1): Linear(in_features=512, out_features=2048, bias=True)\n",
       "          (w_2): Linear(in_features=2048, out_features=512, bias=True)\n",
       "          (dropout): Dropout(p=0.1)\n",
       "        )\n",
       "        (sublayer): ModuleList(\n",
       "          (0): SublayerConnection(\n",
       "            (norm): LayerNorm()\n",
       "            (dropout): Dropout(p=0.1)\n",
       "          )\n",
       "          (1): SublayerConnection(\n",
       "            (norm): LayerNorm()\n",
       "            (dropout): Dropout(p=0.1)\n",
       "          )\n",
       "          (2): SublayerConnection(\n",
       "            (norm): LayerNorm()\n",
       "            (dropout): Dropout(p=0.1)\n",
       "          )\n",
       "        )\n",
       "      )\n",
       "    )\n",
       "    (norm): LayerNorm()\n",
       "  )\n",
       "  (src_embed): Sequential(\n",
       "    (0): Embeddings(\n",
       "      (lut): Embedding(1611, 512)\n",
       "    )\n",
       "    (1): PositionalEncoding(\n",
       "      (dropout): Dropout(p=0.1)\n",
       "    )\n",
       "  )\n",
       "  (tgt_embed): Sequential(\n",
       "    (0): Embeddings(\n",
       "      (lut): Embedding(2741, 512)\n",
       "    )\n",
       "    (1): PositionalEncoding(\n",
       "      (dropout): Dropout(p=0.1)\n",
       "    )\n",
       "  )\n",
       "  (generator): Generator(\n",
       "    (proj): Linear(in_features=512, out_features=2741, bias=True)\n",
       "  )\n",
       ")"
      ]
     },
     "execution_count": 37,
     "metadata": {},
     "output_type": "execute_result"
    }
   ],
   "source": [
    "model = make_model(len(SRC.vocab), len(TGT.vocab), N=6)\n",
    "model = model.cuda()\n",
    "model.load_state_dict(torch.load(PATH))\n",
    "model.eval()"
   ]
  },
  {
   "cell_type": "markdown",
…
